iris.pt (torch, 3103 bytes, 6 tensors)

weight f4 [4, 4]
000000 98 3b 8d 3d f7 bc 34 bf d0 b2 37 3f 37 2e 89 3f
       0.06896132 -0.7060084 0.7175722 1.0717229
000010 02 02 f1 be 12 87 99 3e a8 a9 d2 bd 0a 3d 82 3e
       -0.47071844 0.29985863 -0.102862656 0.25437194
000020 d9 7e 02 3f 35 44 b0 bd 50 e4 7c 3f 88 96 57 3f
       0.50974804 -0.086067595 0.9878588 0.8421407
000030 bc 54 aa 3f 2e 5e 4b 3f 26 59 ce bf b6 17 af bf
       1.3307109 0.7944058 -1.6120956 -1.3679111

bias f4 [4]
000000 09 1a ce bf 00 e7 02 bb d4 6c a8 3d 2b ea 2f 40
       -1.6101695 -0.0019974113 0.08223882 2.7486675

weight f4 [4, 4]
000000 fb 04 b7 bf 36 9d 9a be 64 df c9 3c fb 5f c4 3f
       -1.4298395 -0.30198067 0.024642654 1.5341791
000010 7d 47 41 3f 80 1f c4 3c bd 83 8e 3f c0 6a 4b bf
       0.7549971 0.023940802 1.1133953 -0.7945976
000020 0b 48 87 bf 1c b3 9e 3e 31 4f 1a bf 30 d1 77 3f
       -1.0568861 0.30996025 -0.60277086 0.9680357
000030 ae f9 a8 3e 52 40 e9 be 2e 68 f3 be 3c f4 76 be
       0.3300299 -0.45556885 -0.4754042 -0.24116606

bias f4 [4]
000000 50 d6 b5 3f 14 06 a1 be 35 dc ee 3e a8 ee 6d be
       1.4206028 -0.3144995 0.4665238 -0.23235571

weight f4 [3, 4]
000000 23 b3 72 3f 4b 39 8f bf 76 0f 7b 3f 80 03 c2 3b
       0.9480459 -1.118936 0.98070467 0.0059208274
000010 07 25 08 c0 27 c8 a8 3f ac 09 31 bf e4 94 16 3e
       -2.12726 1.3186082 -0.69155383 0.14705235
000020 f9 c8 b4 3f e9 30 25 be 19 55 b5 bf bc 1c 74 be
       1.4123832 -0.16131939 -1.4166595 -0.23839086

bias f4 [3]
000000 6e 7d 3b bd 0d e8 f6 be 60 ff 7d 3f
       -0.045773916 -0.48223916 0.99217796
